…
_10_model.add(tf.keras.layers.Flatten()) # Hidden Dense Layer cf_10_model.add(tf.keras.layers.Dense(64, activation = tf.nn.relu))  # Output Layer  # 10 outputs, one for each class as the model will output the probability of each individual class cf_10_model.add(tf.keras.layers.Dense(10, activation = tf.nn.softmax))  cf_10_model.summary() <pre>Model: \"sequential_1\"\n_________________________________________________________________\n Layer (type)                Output Shape              Param #   \n=================================================================\n conv2d (Conv2D)             (None, 30, 30, 16)        448       \n                                                                 \n max_pooling2d (MaxPooling2D  (None, 15, 15, 16)       0         \n )                                                               \n                                                                 \n conv2d_1 (Conv2D)           (None, 13, 13, 32)        4640      \n                                                                 \n max_pooling2d_1 (MaxPooling  (None, 6, 6, 32)         0         \n 2D)                                                             \n                                                                 \n flatten (Flatten)           (None, 1152)              0         \n                                                                 \n dense_4 (Dense)             (None, 64)                73792     \n                                                                 \n dense_5 (Dense)             (None, 10)                650       \n                                                                 \n=================================================================\nTotal params: 79,530\nTrainable params: 79,530\nNon-trainable params: 0\n_________________________________________________________________\n</pre> In\u00a0[\u00a0]: Copied! <pre>tf.keras.utils.plot_model(cf_10_model)\n</pre> tf.keras.utils.plot_model(cf_10_
…
layers.Flatten())  new_cf_10_model.add(tf.keras.layers.Dense(512, activation = tf.nn.relu)) new_cf_10_model.add(tf.keras.layers.Dense(256, activation = tf.nn.relu)) new_cf_10_model.add(tf.keras.layers.Dense(128, activation = tf.nn.relu)) new_cf_10_model.add(tf.keras.layers.Dense(10, activation = tf.nn.softmax))  new_cf_10_model.summary() <pre>Model: \"sequential_2\"\n_________________________________________________________________\n Layer (type)                Output Shape              Param #   \n=================================================================\n regnetx160 (Functional)     (None, 1, 1, 2048)        52340704  \n                                                                 \n flatten_1 (Flatten)         (None, 2048)              0         \n                                                                 \n dense_6 (Dense)             (None, 512)               1049088   \n                                                                 \n dense_7 (Dense)             (None, 256)               131328    \n                                                                 \n dense_8 (Dense)             (None, 128)               32896     \n                                                                 \n dense_9 (Dense)             (None, 10)                1290      \n                                                                 \n=================================================================\nTotal params: 53,555,306\nTrainable params: 1,214,602\nNon-trainable params: 52,340,704\n_________________________________________________________________\n</pre> In\u00a0[\u00a0]: Copied! <pre>tf.keras.utils.plot_model(new_cf_10_model)\n</pre> tf.keras.util
…
